model_hw7.pt (torch_old, 479094 bytes, 7 tensors)

weight f4 [64, 128]
000000 a1 e8 4d be ac 05 be 3e 67 76 a5 bf 3c 7d f8 be
       -0.20108272 0.37113702 -1.2926759 -0.48533046
000010 90 2b 23 bf 52 f7 ed be 0e 55 46 be af 74 d2 be
       -0.63738346 -0.46477753 -0.19368383 -0.41104648
000020 73 be 89 be 16 30 26 3f 29 26 bf 3e 3a 71 fb 3e
       -0.26903114 0.64917123 0.373338 0.49109823
000030 13 e1 2c 3f 1e 83 8f be 6c cb cd 3e 20 f9 f5 be
       0.67530936 -0.28029722 0.4019426 -0.4804163
000040 16 a7 a5 bf 28 53 16 bf 1e ca aa 3f f0 4e df 3c
       -1.2941616 -0.58720636 1.3342931 0.02725932
000050 27 45 2d bf 87 25 98 3f 53 14 c2 3e b2 d2 4b 3f
       -0.67683643 1.1886452 0.3790613 0.7961837
000060 91 95 84 3f 7f bb f8 3e bb 8d d6 be df 07 ff 3f
       1.0358144 0.48580548 -0.41905007 1.9924277
000070 e5 24 69 3f 7d f8 71 3f d0 75 d0 3e bf 13 37 bf
       0.9107192 0.9451979 0.40714884 -0.71514505
000080 e4 17 6d 3f b9 f6 55 bf 34 47 79 bf 56 3f 99 bf
       0.9261458 -0.83579594 -0.9737427 -1.1972454
000090 9e 20 1f bf ac cd cf bf ec ba 28 3f 00 e1 d2 3e
       -0.62159145 -1.6234641 0.6591022 0.41187286
0000a0 30 bf e0 bd 66 73 c5 bf ca 78 0f 3e 9a a5 90 3c
       -0.10973966 -1.5425842 0.14010921 0.01765709
0000b0 e2 89 db 3e 18 76 ba bf b7 b7 01 40 24 ab 6e bb
       0.42878634 -1.4567289 2.026838 -0.0036417926
0000c0 f1 b8 42 bd c2 94 76 bf 54 c6 06 3f 14 b4 42 bf
       -0.047539655 -0.96320736 0.52646375 -0.7605603
0000d0 2b 32 bc 3f 7c 77 80 be a9 13 5f bd f8 2e 1b be
       1.470281 -0.2509116 -0.05446211 -0.15154636
0000e0 24 ca 35 bd a7 df a2 3f 68 46 7e 3f 96 da 84 bf
       -0.04438223 1.2724503 0.9932618 -1.0379207
0000f0 4c df 1e bf ef 12 e7 3e 3c 95 a3 bf 7f 36 f8 be
       -0.62059474 0.45131633 -1.2779918 -0.48479077
000100 41 b9 9a bf 0b 9a ed be e8 66 42 be 9b c5 3b 3f
       -1.2087785 -0.46406588 -0.18984568 0.73348397
000110 27 de 25 bf 58 b3 3b bd e6 c0 cf bf 85 c1 04 c0
       -0.647921 -0.045825332 -1.6230743 -2.0743115
000120 7e 75 ed be 19 24 4a 3f 46 16 47 bf b1 e8 2a 3f
       -0.46378702 0.7896133 -0.7776836 0.6676131
000130 e5 34 95 3f b3 ef 86 3e 7c b3 50 bd 34 f6 d2 3f
       1.1656767 0.2635475 -0.05095242 1.6481385
000140 ae df 5a 3f d3 68 d8 bd b9 22 8b bf a3 97 0e 3f
       0.8549756 -0.10566869 -1.0869972 0.5570013
000150 4b 0d 5c bf 3c 26 fb 3e 78 33 6e 3f d5 29 76 3f
       -0.85957783 0.49052608 0.93047285 0.9615758
000160 32 18 2e 3e 57 b0 3c 3e c6 44 0a bd da e5 44 3e
       0.17001417 0.18426643 -0.033756994 0.19228306
000170 e4 79 27 3f d8 1e 06 bf 9e 86 94 3f c4 f7 5d be
       0.65420365 -0.52390814 1.1603582 -0.21676546
000180 d7 0e 8e bf 53 08 8a bf c2 6b 8d bf 0b f1 ea 3e
       -1.1098279 -1.078379 -1.104851 0.45887026
000190 6b db 88 3f d9 a4 82 3e 38 13 95 bf 9d cc 23 bf
       1.0691961 0.25516394 -1.164649 -0.6398409
0001a0 81 9c 3a 3e d8 e0 18 3f e7 af 49 3e 7b f8 0f bf
       0.18223764 0.59718084 0.19696008 -0.56238526
0001b0 38 9a e5 be 45 b5 cd be 80 07 03 bf a2 7e 78 be
       -0.44844222 -0.4017736 -0.5118332 -0.24267057
0001c0 c7 9f e1 be 4b 4c a9 bf ba 45 16 bf 0a 6f c9 3d
       -0.44067213 -1.3226408 -0.58700144 0.09835632
0001d0 58 12 0c 3d 6a a7 b6 3e 11 1a b9 3f 17 53 0d 3f
       0.03419718 0.35674602 1.446108 0.5520491
0001e0 4d 3d 0b 3e 6b a0 2c bf eb 71 34 bf c0 de 37 bf
       0.13597603 -0.6743228 -0.70486325 -0.71824265
0001f0 df 49 aa 3f b4 c2 52 3d 32 1e 9e 3f 7d f7 09 bf
       1.3303794 0.051455215 1.2352965 -0.5389326
000200 32 6e 29 bf 4c ba a1 3f da 08 02 3e 54 a0 8c bf
       -0.6618377 1.2634978 0.12698689 -1.0986428
000210 1c 68 ab 3e 02 f7 1b bd 97 0c 83 bc 3a 2a b0 3e
       0.33477867 -0.038077362 -0.015997214 0.34407216
000220 d2 19 bf 3e 74 5b 74 3e 8b 92 a3 3e 6d 9e 18 3f
       0.37324387 0.23863012 0.3194774 0.5961674
000230 dc e3 81 be 0e 9f f2 be 9e bc 04 3d e3 d6 5f 3f
       -0.25369155 -0.47386974 0.032406442 0.87437266
000240 a5 26 b7 3e b3 71 89 3f dd 5f c6 be da a0 fe bd
       0.3577167 1.0737823 -0.38745013 -0.12433024
000250 82 a7 38 3e 70 cb 03 bf 67 b2 09 be 50 bc dd bd
       0.18032649 -0.51482296 -0.13446961 -0.108269334
000260 f5 83 24 be 43 29 1a 3e 63 92 ea 3e 2c 4a 01 3f
       -0.16065963 0.15054803 0.4581481 0.505038
000270 c5 5b d4 3e 25 8d 7d 3f 43 99 87 3e d4 d5 c7 3e
       0.41476265 0.99043494 0.26484117 0.39030325
000280 80 06 40 be 7d f2 1a 3e e4 52 eb 3d ce 84 da 3d
       -0.1875248 0.15131564 0.114904195 0.10669862
000290 24 6f a9 3c c2 0b 5a 3e 5d 2a ca be 51 41 dd be
       0.020682879 0.21293548 -0.39485446 -0.43213895
0002a0 d5 28 b9 bd 5e cd 4d bf 22 38 d7 3d 13 f9 25 3e
       -0.09040991 -0.8039149 0.10508753 0.16208296
0002b0 35 df 65 3e 83 9c c3 be 5b 46 da 3d 91 25 ad 3e
       0.22448428 -0.38205346 0.106579505 0.33817723
0002c0 7e 8d f4 be f5 52 2d bf 06 26 15 be 0f a0 01 be
       -0.477642 -0.6770471 -0.14565286 -0.12658714
0002d0 3a 57 9f 3e ee 85 13 3f 8e 92 59 bf fe 51 db 3c
       0.31121236 0.57626235 -0.8498925 0.026772495
0002e0 8f 21 5a 3d f4 c2 eb be 98 11 82 3e b6 2a 5a bf
       0.05325466 -0.46047175 0.25404048 -0.8522142
0002f0 15 be 85 3f 79 6e 69 3e 88 83 69 3f 55 cf 72 3e
       1.0448633 0.22796048 0.91216326 0.23711903
000300 92 cd 0a bf ae 2b 92 be fa 33 b2 be 8c 37 fc 3e
       -0.54219925 -0.2854895 -0.3480528 0.4926113
000310 66 c0 d5 be 04 c4 ba be 69 c3 ba bc 29 b6 23 be
       -0.4174835 -0.36477673 -0.022798257 -0.15987457
000320 dd 5a 9d be dc f6 04 3e 9b 75 19 be e9 e0 5e bd
       -0.30733386 0.12984794 -0.14986269 -0.05441371
000330 f2 e8 18 3e ab d9 27 be cf 9f 78 3f d7 ad 23 3f
       0.14932612 -0.16391627 0.9711885 0.63937134
000340 fd ab c5 3e 92 65 ad 3e 57 cb 03 3f 2e d2 86 3d
       0.3860778 0.33866554 0.51482147 0.06583057
000350 d0 9c a2 3e 28 4f 4f 3e f0 c0 08 be 4a 78 16 3f
       0.31760263 0.2024504 -0.1335485 0.58777297
000360 3a e9 27 3e de cc bf 3e a9 5b b8 bc ff ef 2b bf
       0.16397563 0.3746099 -0.022504644 -0.6716308
000370 01 5f fa 3d d8 48 ba 3e d7 f1 88 be 13 e3 39 3f
       0.12225152 0.363837 -0.2674701 0.7261211
000380 19 5f bb 3e f0 f7 05 3e 0e 13 b0 be 46 64 83 3e
       0.3659599 0.13082862 -0.34389538 0.2566244
000390 4d 74 cc 3e db 07 69 3f 3a 67 fc bd 86 ec d9 bd
       0.3993248 0.9102761 -0.123243764 -0.106408164
0003a0 d5 d9 bf bd 59 6e c3 3e 95 e6 b0 3b 59 b3 69 3f
       -0.0936772 0.38170126 0.0053985813 0.9128929
0003b0 e0 0a 58 3d 9a 4f 76 bf 4e 65 29 3e 2e 7d 82 bf
       0.052744746 -0.9621521 0.16542551 -1.0194452
0003c0 97 71 6d bf e3 92 3f bf d0 25 2c be 7f 44 5d 3f
       -0.9275145 -0.74833506 -0.168113 0.8643264
0003d0 eb 32 a8 3e ab b9 60 3e 56 a4 0a 3f 5b ac 01 3e
       0.32851347 0.21945827 0.54157007 0.12663405
0003e0 79 55 19 be 3b 60 90 be d2 b6 86 be 13 a1 00 bf
       -0.14974011 -0.28198418 -0.26311356 -0.5024578
0003f0 b7 ee 07 3f aa 00 d7 be ff 7e cb 3d 57 8c 8d bd
       0.53098625 -0.41992694 0.09936332 -0.06911533

weight_ih_l0 f4 [384, 128]
000000 15 04 94 be 4f 97 89 3e be 45 31 3e cc 6c 9d 3e
       -0.28909364 0.26873252 0.17311761 0.30747068
000010 ec d2 6e bc 47 99 f8 be c2 64 91 be b8 13 50 be
       -0.014576655 -0.4855444 -0.28397185 -0.20320022
000020 ba 33 11 3e 2c b4 bd be 5d ee 43 3e 1b ef 51 3e
       0.14179888 -0.37051523 0.19133897 0.20501368
000030 a2 09 60 be 18 8f 10 bf 25 17 7e 3c 8d 83 a1 3d
       -0.21878675 -0.56468344 0.015508448 0.078864194
000040 bf 8d 22 3f 66 c0 39 be e8 3b c7 3d 2e 46 49 be
       0.6349754 -0.181398 0.09728223 -0.19655678
000050 a5 d5 ea be 76 1d 67 be 57 1c dc 3d fd fa 36 bd
       -0.45866123 -0.22569832 0.10747593 -0.044672955
000060 3c e8 e0 bb ab 0a d6 be 5e f0 09 3e bb 7a 69 3c
       -0.006863622 -0.41805014 0.13470599 0.014250453
000070 5e 69 6f 3e e0 fb 09 3f 52 26 67 bd c2 2a 9a be
       0.23380038 0.53899956 -0.05643303 -0.30110747
000080 d2 11 a8 3e d3 63 65 3d 6c 11 c3 be 33 00 b3 be
       0.32826096 0.056003403 -0.3809923 -0.3496109
000090 a0 47 ff 3e 96 a0 a5 3e 84 af 33 3d f0 2a 57 be
       0.49859333 0.3234908 0.043868557 -0.21012473
0000a0 79 6a 35 3e 80 17 09 bb df 1b 94 be 8e 73 54 3e
       0.17716397 -0.0020918548 -0.28927514 0.20747206
0000b0 3d 7d 18 be 8f ce f7 3e cc ed b5 be 70 a1 48 3e
       -0.14891525 0.4839978 -0.35532987 0.19592834
0000c0 09 e8 e8 bd 57 be 92 3d 9f 31 b3 be 1a e7 22 3c
       -0.11372382 0.07165211 -0.34998795 0.009942794
0000d0 62 c7 79 bd 6f b1 c1 3a a2 01 60 3d 45 4b 71 3d
       -0.060981162 0.0014777611 0.054689057 0.058909673
0000e0 33 89 0e 3f d7 ac 3f be 64 f1 28 3d 9e 1f e7 be
       0.556781 -0.18718277 0.041245833 -0.4514131
0000f0 02 10 c1 3e c3 b7 14 3e fd cf db bd b5 75 c4 3e
       0.37707525 0.14523225 -0.1073303 0.38371053
000100 08 d7 ab 3d a3 2f 14 bf ff 3f 34 bd e9 09 8f 3e
       0.08390623 -0.5788519 -0.044006344 0.27937248
000110 97 63 82 be 52 10 54 3d 37 65 90 be 14 ad c8 3b
       -0.25466606 0.051773377 -0.2820222 0.006124148
000120 48 48 4d bf 76 7b 1e be d8 7f 88 3e d8 a6 b6 bc
       -0.8018842 -0.15476784 0.26660037 -0.022296354
000130 e9 69 dc 3e bc 0f 95 3e 31 77 01 bf 67 93 e3 bd
       0.43049553 0.29113567 -0.50572497 -0.11112099
000140 7f ad 85 be a8 ab df 3e 83 b6 cd 3d 06 f6 40 be
       -0.2610893 0.4368565 0.10044577 -0.1884385
000150 81 af 02 be 51 2d 2a be 06 71 98 be 5f 2b 0c 3e
       -0.12762262 -0.1661885 -0.2977373 0.1368842
000160 4f fb be 3e be de 5e be 8f 4a a7 bd 04 8c 00 be
       0.37301108 -0.21764657 -0.08168518 -0.12553412
000170 5f 7c f2 bd 65 d2 14 be 81 9e 2c bf db 97 8f be
       -0.11840128 -0.14533384 -0.6742936 -0.28045544
000180 92 fb e9 bd 0b f3 c3 be 38 21 a0 3e a5 f9 27 bc
       -0.11424936 -0.38271365 0.31275344 -0.010252391
000190 2e 83 84 bc 1b 18 3f 3e dd 43 89 bd 55 34 dc 3e
       -0.016175833 0.1866154 -0.06702397 0.43008676
0001a0 6c c6 c7 be 05 78 71 3e 86 c3 7c 3b 48 b6 4a 3e
       -0.3901857 0.2358094 0.003856869 0.19796097
0001b0 a7 fd e2 be 77 c4 78 be d4 b9 40 3d c3 13 08 bf
       -0.44334146 -0.24293695 0.04705222 -0.53155154
0001c0 32 90 3b 3d ba 90 9c bc a5 9a f8 3d f4 c0 8b be
       0.045791812 -0.01911198 0.12138871 -0.2729565
0001d0 45 25 0c be d5 46 a3 3d 37 88 a8 3e 52 8e 5a be
       -0.13686092 0.079724945 0.32916424 -0.21343353
0001e0 50 0a 6f 3e 4d 6d c9 bd 1c 2a 81 be f7 d8 ab be
       0.23343778 -0.098353006 -0.2522744 -0.3356397
0001f0 a1 34 18 3f 46 b4 24 bd f1 02 94 3e 55 ed ef bd
       0.59455305 -0.040210985 0.28908494 -0.11715189
000200 42 c0 00 3d 86 ec 94 3e 5a 19 1b 3f ec 4b b7 bb
       0.03143335 0.29086703 0.6058556 -0.0055937674
000210 d4 da 2c 3f 14 a0 11 bf d7 1a 18 3f 20 7c a3 be
       0.67521405 -0.56884885 0.59415954 -0.31930637
000220 89 3e 8a be 73 2e 91 3d 65 64 13 3c b6 ad 04 3e
       -0.27000836 0.070889376 0.008996104 0.1295689
000230 d6 fe 48 bf dd bf 20 bf c8 17 b5 3d 3c 0f 0a be
       -0.7851385 -0.6279276 0.088424265 -0.13482374
000240 d5 25 3b be 1e 18 27 3e 13 fe 60 bf b7 14 85 be
       -0.1827615 0.16317794 -0.87887686 -0.25992367
000250 3c 3c 6f 3e e6 aa 39 bd 2d 15 4b 3f c2 d5 d8 3e
       0.23362821 -0.045328997 0.79329187 0.42350584
000260 ce 17 8c be 73 6a 96 be 3d 0d db 3e 87 0c be 3c
       -0.27361912 -0.2937809 0.42783538 0.023199333
000270 f2 95 de bd 28 50 7a bd e6 6c ac be 5e 55 25 3f
       -0.108684435 -0.0611116 -0.33676833 0.64583385
000280 aa 75 5f 3e 26 07 d8 3c ab 19 f3 bc 2b b1 f8 3c
       0.21822229 0.026370596 -0.029675325 0.030357918
000290 f9 23 4f 3f 9d ff d3 3a 00 8d 3b be d4 a2 43 bd
       0.80914265 0.0016174201 -0.18315506 -0.047762707
0002a0 1e 8f 71 3c b8 a3 42 be c0 27 83 be af 10 ed bd
       0.014743594 -0.19007766 -0.25616264 -0.11575448
0002b0 bd 95 9c 3d 22 89 d6 bb 62 00 69 bf 3a e9 60 be
       0.07645748 -0.006547109 -0.9101621 -0.21963969
0002c0 c3 58 b4 be d6 e6 8c bd 97 40 bd be fa 50 23 3f
       -0.3522397 -0.06879966 -0.3696334 0.63795435
0002d0 eb 7f 0f 3f b2 17 54 be 69 c6 e5 bd d2 c9 20 3e
       0.5605456 -0.20712164 -0.11219484 0.15701988
0002e0 d8 04 f7 bb 48 40 05 bd 0c 5a 0f bf e8 bd 20 3f
       -0.007538419 -0.032532007 -0.55996776 0.62789774
0002f0 1c f5 c2 3e 95 56 2c be f6 18 b0 3e a7 c9 94 3e
       0.3807763 -0.16829903 0.34394044 0.290601
000300 06 b2 a1 3e 4a 89 3c 3e 08 d6 14 3f d6 48 60 bd
       0.31581134 0.18411747 0.58139086 -0.05475696
000310 d4 f8 ad 3e 4e de 2b 3e d4 34 a9 3e 07 f5 b2 3e
       0.33978903 0.16784021 0.33048117 0.34952566
000320 c6 c9 53 3e e4 c7 09 bf 14 b7 51 3e 5e fe 95 3d
       0.20682439 -0.53820634 0.20479995 0.07323907
000330 15 82 0f 3e 4c 6d 9d be 26 bc 78 be 0d f8 c5 3e
       0.14014466 -0.3074745 -0.24290523 0.3866581
000340 53 25 af 3e 6d 92 fd bc 7c 08 08 3f 49 76 dc be
       0.34208164 -0.03095361 0.53137946 -0.43058994
000350 d9 93 b2 3e 44 b0 c9 3e ef 5a 4f be 8b 00 a7 3d
       0.34878424 0.39392292 -0.20249532 0.081544004
000360 f7 e5 55 be 25 31 3e bf 68 02 7b be 0d ea ac bd
       -0.20888506 -0.7429374 -0.24512637 -0.08443079
000370 1c d5 29 3e 2a 1d 33 3e 53 cb c8 be dc 52 20 3f
       0.16585201 0.17491594 -0.39217624 0.62626433
000380 7d 2b 8f 3e 1c 60 13 bd 84 91 58 be e6 b5 c5 3e
       0.27962866 -0.03598033 -0.2114926 0.3861534
000390 77 fc 99 3d 45 0a 32 bf f6 b5 0d 3d fd a0 cf 3e
       0.07518857 -0.6954692 0.03459736 0.40552512
0003a0 bd 7f 46 be 27 e9 6d bd ff 47 94 be e3 1a 81 bd
       -0.19384666 -0.05808368 -0.2896118 -0.06303956
0003b0 6b b8 32 3e 34 a6 b4 bd 39 c1 4a 3f c6 86 70 be
       0.17453162 -0.08820763 0.79201084 -0.23488912
0003c0 65 bf 65 bb 37 06 ed bd c1 f3 36 be 7d 9b 10 3e
       -0.0035056707 -0.11573451 -0.17866422 0.14121814
0003d0 55 8d 59 be 6f e6 e7 bd ed d4 81 3e 0f 79 6a be
       -0.2124532 -0.113232486 0.25357762 -0.22897743
0003e0 a5 11 83 3e c2 e5 b9 be 17 72 86 bd 9b 24 5e 3e
       0.255994 -0.36308104 -0.0656473 0.21693651
0003f0 49 de 19 bf 86 dc 40 be 1c da 91 be 3a 2e dc 3e
       -0.60104805 -0.18834123 -0.28486717 0.43004018

weight_hh_l0 f4 [384, 128]
000000 d7 20 12 be 27 ca 0e 3e 5f bd dd be b0 29 88 3e
       -0.1427034 0.13944302 -0.4330854 0.26594305
000010 5e 42 35 3e c4 ca 30 bd be de 24 3f ff 76 9d 3e
       0.17701098 -0.043162122 0.6440238 0.3075485
000020 7f 9b f0 bc c5 93 e1 3e 9d eb c5 bc 00 72 2d be
       -0.029371021 0.44058052 -0.0241602 -0.16938019
000030 c3 03 c1 bd fd 7f e5 3e ef 09 b2 3e c1 93 41 3e
       -0.094245456 0.4482421 0.34773204 0.1890402
000040 a7 82 09 bf ef c3 18 3e dc 85 3e 3f 1c 07 1e 3d
       -0.53714985 0.14918493 0.74423003 0.038581
000050 ac 56 56 bd a7 43 f8 3e b9 aa 0b bc a8 c8 1c 3e
       -0.05232875 0.48489115 -0.00852459 0.1531092
000060 29 04 86 3e 34 7e 40 bf 5d a2 ac 3e 0c 00 2a 3e
       0.2617505 -0.7519257 0.33717623 0.1660158
000070 ab 0a 6a 3e 44 bc 84 3e 57 b0 c4 3e 33 84 57 3d
       0.22855632 0.25924885 0.38415787 0.05261631
000080 80 a5 94 be 3b a3 93 be f3 eb 65 be 80 76 02 bf
       -0.29032516 -0.28835472 -0.22453289 -0.50962067
000090 1e d2 ae 3e 9d a5 72 bd f0 88 d7 be 1a b7 57 be
       0.34144682 -0.059239972 -0.42096663 -0.21065941
0000a0 62 a9 64 3e a7 9f 30 3c a5 ce fc 3d 96 bd 68 bd
       0.2233024 0.010780252 0.12344102 -0.05682143
0000b0 54 0b 56 be 86 9e 72 3e 03 fc 42 3e 9d b7 68 3d
       -0.20902759 0.23693284 0.19041447 0.056815732
0000c0 ac 1c 0d bf aa 74 3f 3c 5f 2a 25 bf fb bf 41 3d
       -0.55121875 0.01168553 -0.6451778 0.047302227
0000d0 90 83 8f 3e c4 30 6f bd 72 23 08 bd 2f 2c 14 3e
       0.28030062 -0.058396116 -0.03323693 0.1446998
0000e0 68 ae 10 3e 01 bc 57 be e4 6d f7 bd e3 f9 6d 3e
       0.1412903 -0.21067812 -0.12081507 0.23239855
0000f0 d7 e1 d2 3e 4d 10 c5 3e 19 65 e9 3e 36 63 14 be
       0.41187927 0.38489 0.45584944 -0.14490971
000100 3c 44 f3 bd b7 04 5e 3e b4 b9 87 bf 3a 68 a8 3e
       -0.11878249 0.21681486 -1.0603547 0.3289202
000110 60 be e9 3e 17 63 e5 be 96 c7 b9 be 96 6e fc bd
       0.45653057 -0.44802162 -0.36285084 -0.1232578
000120 2e 00 dd be e0 e2 e2 b9 4c 23 c4 3e 30 76 fd be
       -0.431642 -0.00043275114 0.3830818 -0.49504232
000130 7e 03 81 bd 6c 10 94 3d 19 2d ba 3e 69 98 2f be
       -0.06299494 0.07229695 0.36362532 -0.17147984
000140 74 2e df be 27 a3 bc be e1 0d 0c 3e 0f fb c1 be
       -0.43590128 -0.36843225 0.1367717 -0.37886855
000150 d2 76 2f 3e af 7b 00 bf 97 92 12 be 7a 1a 37 3e
       0.1713517 -0.50188726 -0.14313732 0.17881194
000160 4d 27 2c be 14 b9 da 3b 51 58 ff be ae 11 68 be
       -0.16811867 0.006674895 -0.49872068 -0.22662994
000170 a9 12 b5 be dd 07 1c 3d ab cf 48 3d 45 d5 28 3e
       -0.353658 0.038093437 0.049026173 0.16487606
000180 ac 5e 53 3d 17 9e c8 3e 78 21 02 3f b8 08 6f bb
       0.051603958 0.39183113 0.5083232 -0.0036473703
000190 db 1c 8b 3c fd 64 28 bd c3 0f ce 3e a7 b3 cd 3d
       0.016981533 -0.041111935 0.402464 0.100440316
0001a0 d1 c5 21 3e 92 b9 0e bf 1d b4 0b be 6e 77 22 3f
       0.15798117 -0.5575191 -0.13642927 0.63463485
0001b0 c8 06 cb 3e 67 73 05 bd 62 67 b2 3e 33 c9 e6 3d
       0.3965361 -0.03258076 0.348445 0.112688445
0001c0 2b b2 95 3d a1 4d fd 3d 16 1f 08 3f f7 0b 87 3e
       0.073093735 0.12368322 0.53172433 0.26376316
0001d0 7a 10 0f bf b2 e3 ea be 08 58 13 3f 37 d8 58 bc
       -0.55884516 -0.45876843 0.575562 -0.013235143
0001e0 f3 f7 d2 3e b0 eb b6 3d bb c5 16 3f 1d 67 85 bd
       0.41204795 0.089316726 0.5889546 -0.06513808
0001f0 9f bc 16 3f d4 68 60 bf 56 d3 bc be 8d a5 86 bd
       0.5888156 -0.87659955 -0.36879987 -0.06574545
000200 21 05 37 be 76 50 9c bc 29 e8 35 be d3 78 ba bd
       -0.1787305 -0.019081336 -0.17764343 -0.09105077
000210 ae 6d 41 3e 56 6b 03 bf fb fb 71 be 70 2f 6b 3e
       0.18889496 -0.51335657 -0.23631279 0.22967315
000220 0a d7 72 3e f2 e6 60 3e 49 75 04 3f 12 3a 8f be
       0.23714843 0.21963099 0.5174146 -0.27973992
000230 a2 d0 d0 be 2b d4 55 bf 1c f6 23 bf 49 41 38 be
       -0.40784174 -0.8352687 -0.6404741 -0.17993654
000240 96 51 8e 3e b5 12 27 3d a7 c1 94 be 1e 1f 00 bf
       0.2779662 0.040789325 -0.29053995 -0.5004748
000250 c4 0c b5 bd 96 0f e0 3e 51 0e 7d be 09 1c f2 3e
       -0.088403255 0.4376189 -0.24712493 0.47287014
000260 80 c1 68 bd f9 19 a5 3e 44 da 93 3b 5b 18 09 3f
       -0.05682516 0.32246378 0.0045121033 0.5355279
000270 49 c1 d2 3e 3c eb 83 be b7 f0 32 3e c1 0d 2c 3d
       0.4116309 -0.25765407 0.17474638 0.042005304
000280 22 2a d5 be 24 f0 de 3c b6 75 62 be e1 0e ed be
       -0.41633707 0.027214117 -0.22115216 -0.46300414
000290 36 7b 84 3e 97 e6 5b bf c9 6f 06 3f 62 0b a1 be
       0.25875252 -0.8589873 0.5251432 -0.31453997
0002a0 01 6c b8 3e 75 6a 8d be d4 a1 8e be 61 05 1f bf
       0.360199 -0.27620283 -0.2785784 -0.6211758
0002b0 8c 1a c0 bc d6 09 09 3f 59 20 d1 bd 31 30 cd 3e
       -0.023450159 0.53530633 -0.10211248 0.4007583
0002c0 03 71 54 3e 0a 57 f0 3e 5a ce 56 3d 71 bf fb 3e
       0.20746236 0.46941406 0.052442886 0.49169496
0002d0 30 22 b3 bb 76 0f 76 bd 5a 71 76 3e 99 61 77 3e
       -0.005466722 -0.06007334 0.24066678 0.24158324
0002e0 7e 00 58 3d 36 f9 0e be 18 d9 c9 3e 05 fb e4 3e
       0.052734844 -0.13962254 0.39423442 0.44722763
0002f0 17 92 d3 3d 12 3f f8 3e ac e4 89 be 59 c7 73 be
       0.10330599 0.4848562 -0.26932275 -0.23806514
000300 a2 69 91 be 2e 15 72 3d 70 23 00 bf e6 39 0d be
       -0.28400904 0.05910223 -0.50054073 -0.13791618
000310 03 cc fa be 45 1a e3 3d b3 de de 3c 49 c5 5c 3e
       -0.48983774 0.11088995 0.0272058 0.21559633
000320 af 1b 35 bd 2b 39 a8 be c1 83 9d 3e cf 2e c0 3e
       -0.044215854 -0.32856116 0.30764583 0.37535712
000330 05 01 59 bf dc 38 97 bd 59 94 01 bf b1 5c b6 be
       -0.8476718 -0.07383892 -0.50616986 -0.35617593
000340 4f 7d c0 3d 44 62 eb bd 18 a1 a3 3d c1 fb 59 3e
       0.09398901 -0.11493352 0.079897106 0.21287443
000350 07 91 0f be 6c 42 95 be 50 97 9a be 90 02 58 be
       -0.14020167 -0.29152238 -0.30193567 -0.21094728
000360 4a 32 84 be e7 e2 cc 3d 71 e1 a4 3e b1 04 df 3e
       -0.25819618 0.10004216 0.32203248 0.43558267
000370 b0 66 89 bb 48 26 80 3e 55 f8 d3 be c2 fb 10 be
       -0.0041931495 0.25029206 -0.414004 -0.14158538
000380 4f b7 63 3e df 1a 60 bd 21 67 93 3d a9 c3 8f bd
       0.22237895 -0.054713126 0.07197405 -0.07019741
000390 86 6b ae 3e 47 d7 09 bf 63 fd 12 bf 04 ec 13 3f
       0.3406641 -0.5384411 -0.5741789 0.57782006
0003a0 9c 13 e2 bc 2c 37 1c 3e 97 aa 55 bd 0c 03 98 be
       -0.027597241 0.15255421 -0.05216464 -0.29689825
0003b0 2e 43 f2 3d c1 b7 fb bc fa d5 d1 3e 1e e8 8f 3e
       0.1182922 -0.03072727 0.40983564 0.2810678
0003c0 46 09 08 3f 39 95 a3 be 6f c7 a8 be 1d a2 18 3e
       0.5313915 -0.31949785 -0.32964656 0.14905591
0003d0 a3 29 21 be 18 41 9f 3e ae 24 f3 bd f6 7e df bd
       -0.1573854 0.3110435 -0.118722305 -0.10912888
0003e0 45 7f 0f be 48 ba 0a bf 08 03 30 be 2f 83 0e be
       -0.14013393 -0.5419049 -0.17188656 -0.1391723
0003f0 2e 10 84 be fe df 30 bd 9c 83 b8 bd 15 6f fb be
       -0.25793594 -0.043182366 -0.090094775 -0.49108186

bias_ih_l0 f4 [384]
000000 03 19 7e 3e aa df 04 3d 26 1a ef be e9 6a c0 be
       0.24814229 0.032439865 -0.46699637 -0.37581566
000010 97 18 a2 3d 0c fb f3 bd 22 6c e4 be b3 97 28 be
       0.079148464 -0.11913118 -0.4461375 -0.16464119
000020 96 f7 c2 be 97 7a 47 be e6 29 91 be 9c d1 56 be
       -0.38079518 -0.19480358 -0.28352278 -0.20978397
000030 3b 20 6e 3e 8c 97 22 3d 3b f1 27 be 68 a1 e0 3d
       0.23254482 0.039695308 -0.16400616 0.10968286
000040 dd 26 28 3e b6 56 44 be e1 49 ac be 81 16 5f be
       0.16421075 -0.19173703 -0.33650115 -0.21785928
000050 d6 a0 eb 3b 70 37 34 3e 96 68 51 be 2a 96 01 bf
       0.007190804 0.17599273 -0.20450053 -0.5061976
000060 37 40 81 be cb f2 b2 be b5 9b c5 3e 8d b8 98 be
       -0.25244305 -0.3495086 0.38595358 -0.298283
000070 b3 23 93 bd 4a fb af be 38 be 0b be 11 6b e5 be
       -0.071845435 -0.34371406 -0.13646781 -0.44808248
000080 37 ee f6 be a1 f3 a2 3e 1e 28 d1 bd 0f c7 58 bd
       -0.48228619 0.318265 -0.1021273 -0.052924212
000090 bb 58 15 bf 46 6a d9 be bc c8 2f be bd d5 ac 3d
       -0.58338517 -0.42463893 -0.17166418 0.08439205
0000a0 ad 8b 96 be 4f 23 a2 3d 37 1f b3 3e b7 da 0f bf
       -0.2940344 0.07916891 0.34984753 -0.5619311
0000b0 d3 c1 6c 3d b8 63 55 3e 5a ae b3 3d 92 0d 3f be
       0.057802033 0.20838821 0.08773489 -0.1865752
0000c0 fd 7d 15 be 6c 87 d1 bd fc 0a c3 be cd 22 f0 be
       -0.14598842 -0.10230908 -0.38094318 -0.4690155
0000d0 99 e4 89 be 2d 54 86 bd 11 ba 8a be 10 ae 04 3e
       -0.2693222 -0.06559024 -0.27095082 0.12957025
0000e0 b7 24 c4 3e 80 9a 17 3e 62 6e 26 bb f7 1a 68 be
       0.3830926 0.14805031 -0.0025395383 -0.22666536
0000f0 cd 65 11 be bc 0c 6f be 5d 5d 28 bc 0f 99 c4 3e
       -0.1419899 -0.23344702 -0.010276166 0.38398024
000100 c8 81 cc be 84 b8 f7 bb aa 7d 0c be 56 e8 ad be
       -0.39942765 -0.007559838 -0.13719812 -0.3396632
000110 7c 6c 97 bc 2f a2 ee 3d f4 38 dd bd 39 8c d2 be
       -0.018484347 0.11652028 -0.108018786 -0.41122606
000120 8b 8f 5a 3e 56 f9 ff be e3 a5 57 3e 04 71 ea be
       0.2134382 -0.49994916 0.21059375 -0.4578935
000130 3c 6d 3f be f0 b2 60 be c6 20 53 be 82 1e 2d 3e
       -0.18694013 -0.21943259 -0.20617971 0.16906169
000140 7f 70 09 be 1a a0 8f be c2 73 ff be ca 1e 1b bf
       -0.1342182 -0.28051835 -0.49893004 -0.60593855
000150 9d 38 ab be dc b0 d1 bc 7f 44 91 be 66 a0 a4 be
       -0.3344163 -0.025597028 -0.2837257 -0.32153624
000160 41 4a fb 3d 97 06 f6 3d 48 f3 ad bc 52 2f 16 3f
       0.12270022 0.12012976 -0.02123417 0.58665955
000170 2d 5f 16 3f 82 7d 82 3c e2 db 8a be c2 df 1a 3e
       0.58738977 0.015928987 -0.27120882 0.1512442
000180 e7 d9 bd be 39 d7 ee 3c c4 64 22 3c c0 a9 bf 3d
       -0.3708031 0.02915536 0.00991172 0.09358549
000190 19 1b f9 be 73 c0 ae be 6b 07 b8 3e 08 68 cf be
       -0.48653486 -0.34131202 0.3594316 -0.40509057
0001a0 24 60 64 be 9c e4 c8 ba 4a 52 a7 3d 5b cb 0b bf
       -0.223023 -0.001532692 0.08169992 -0.5460717
0001b0 55 0e 8f bd dd 02 02 bf 76 bf 48 3d bf f4 50 be
       -0.069851555 -0.5078562 0.049010716 -0.20405863
0001c0 78 31 0d bf 50 88 ab b9 63 ef 10 3e 09 0f ef be
       -0.5515361 -0.00032717222 0.14153819 -0.46691158
0001d0 a9 a0 9c 3d 32 3b 9a be 32 16 a2 be ad 84 17 bf
       0.07647831 -0.30123287 -0.3165756 -0.5918682
0001e0 77 66 3f bd 2e 92 b3 3d ca b3 34 be 2f ac 44 be
       -0.046728577 0.08768116 -0.17646709 -0.19206308
0001f0 e3 6d 11 bf de 9b 4a bc 7b 01 12 be 4a 21 74 bd
       -0.568083 -0.012366263 -0.14258377 -0.05960206
000200 c2 2b 93 be 53 8b 2b bf 6d f8 68 be ab b6 be be
       -0.28744322 -0.67009467 -0.22751017 -0.3724874
000210 10 39 32 3e 8b 5d 0d bf cb 8b 31 3e 3e 78 e1 be
       0.1740458 -0.5522086 0.17338483 -0.4403705
000220 ac 42 af be f6 65 8e be 97 a9 8a be 61 a2 d5 3d
       -0.34230554 -0.27812165 -0.27082512 0.10431362
000230 25 c1 27 bf 1a de c7 bd b7 0c 7a 3e 03 9c 0d be
       -0.6552909 -0.097591594 0.24418913 -0.13829045
000240 e0 24 65 be cd 76 7f be 94 8f a1 bd 2d 59 de be
       -0.22377348 -0.24947663 -0.078887135 -0.4342741
000250 76 40 d6 be 2b 03 0b be e0 0c 3c bf 94 2b a2 bd
       -0.41846055 -0.13575427 -0.73457146 -0.07918468
000260 f9 b3 dc bd c4 e8 f1 be 1b b6 d6 bd d7 dc 4e 3d
       -0.107765146 -0.472479 -0.104839526 0.050503578
000270 ca b3 df be b2 6b f7 3e df 6f a4 be e0 2a dd 3c
       -0.43691856 0.48324353 -0.321166 0.026997983
000280 d4 ee 04 bf 33 32 ae 3e ed 0e a3 3e d9 f7 11 3e
       -0.5192692 0.34022674 0.31847325 0.14254703
000290 30 55 80 be de 23 34 bf 49 0d d3 3d 49 50 42 be
       -0.25064993 -0.7036723 0.10305268 -0.18975939
0002a0 08 e1 19 3f de 44 9b be 12 ff fc be bd d8 47 bd
       0.60108995 -0.3032598 -0.49413353 -0.048790682
0002b0 00 5d 62 3e 72 6e fb 3d e2 c0 34 be 1a 6d 5e bd
       0.22105789 0.12276925 -0.17651704 -0.054303266
0002c0 89 a3 12 bf 68 8d e4 bb d2 73 a4 be 85 2b c5 3c
       -0.57280785 -0.0069748648 -0.32119614 0.024068603
0002d0 ea 1a 55 be db 16 89 be 47 9d aa 3e 8a e0 31 be
       -0.20811048 -0.2677525 0.33323118 -0.17370811
0002e0 c4 29 00 bd d0 24 86 be 03 69 02 bf 6f 66 33 3e
       -0.03128983 -0.2619996 -0.50941485 0.17519544
0002f0 51 91 c1 be ff e5 43 be f5 45 db be cd cb 4c 3e
       -0.3780618 -0.19130705 -0.4282681 0.19999619
000300 6f d5 d6 bd 83 8e 80 be aa dc 93 be 67 4b 07 be
       -0.10489928 -0.25108728 -0.2887929 -0.13212357
000310 2a 02 61 be 31 18 0f bf 20 bd a4 bb fe ee dc bd
       -0.21973482 -0.5589629 -0.0050274283 -0.10787772
000320 86 70 89 be f6 82 b3 be 31 f1 b7 be e7 c6 02 be
       -0.2684366 -0.35060853 -0.35926202 -0.12771188
000330 0b 6f 5f be 89 d0 b5 be dd 16 aa be 1a d9 b6 be
       -0.21819703 -0.35510662 -0.33220568 -0.3571251
000340 a0 db 9d be 27 63 ab be 08 41 9e be b8 00 be be
       -0.30831623 -0.33474085 -0.3090899 -0.37109923
000350 94 bd 1f bf 1a 7f 9f be 85 52 94 3e 5e 10 f3 bd
       -0.6239865 -0.31151658 0.28969207 -0.11868356
000360 12 f8 f8 be f1 4f a7 bd 5d b8 60 be 2a 7f 29 bf
       -0.48626763 -0.081695445 -0.21945329 -0.6620966
000370 46 45 4d be bb 3c aa be 30 a8 2c be 57 0b 0d 3e
       -0.20045957 -0.3324946 -0.16861033 0.13773857
000380 bb 4a 02 3e 8a 30 33 be 17 5f 21 3e 28 6e ee be
       0.1272382 -0.17498985 0.1575893 -0.46568418
000390 0a 5d 93 be 1e fa 6e be 75 94 c7 be 54 c2 2d be
       -0.2878192 -0.233376 -0.3898045 -0.16968662
0003a0 f9 0f be be 61 dd fe be 76 7b 19 3e 07 51 52 3e
       -0.3712156 -0.49778274 0.14988503 0.20538722
0003b0 12 09 91 bc b2 19 a3 be 98 15 c9 be d9 4c 99 3e
       -0.01770452 -0.3185554 -0.39274287 0.29941443
0003c0 ef f1 36 bf d5 0f a7 be 0a 57 15 bf aa 69 51 be
       -0.7146291 -0.32629266 -0.58335936 -0.20450464
0003d0 9e 71 3a be 72 c8 2d be ea ad 9f bd 2d 6b ce be
       -0.18207404 -0.16970995 -0.07796843 -0.40316144
0003e0 35 6b 2a be 24 d2 83 be af 35 8f 3d db fe 58 3e
       -0.16642459 -0.25746262 0.06992661 0.2119097
0003f0 a9 37 0b bf d7 d3 cf be 49 4d 40 bf dd 74 9e be
       -0.54381806 -0.40591308 -0.7511793 -0.30948535

bias_hh_l0 f4 [384]
000000 fb 17 68 3e ae b0 04 3d 37 97 fe be 2f 2c ae be
       0.22665398 0.032395057 -0.49724743 -0.34018084
000010 20 a9 b1 b7 c7 8d c7 bc 23 5d eb be d9 f5 82 be
       -2.11788e-05 -0.024359597 -0.45969495 -0.25578192
000020 cb cd fb be 5a af 34 be 29 be 96 be 79 53 61 be
       -0.49180445 -0.17645016 -0.29441956 -0.22004499
000030 2e fd 91 3e 4f bf 12 3e 23 6e 82 be 37 df 96 3d
       0.28513473 0.14330791 -0.25474653 0.073667936
000040 e4 59 f2 3d 45 4c 68 be a9 8d bf be 35 7d d0 bd
       0.118335515 -0.22685345 -0.37412766 -0.10180131
000050 3b 0d dc 3c 12 30 56 3e f7 a3 d5 bd 8e 08 e3 be
       0.026861778 0.20916775 -0.104316644 -0.44342464
000060 c9 60 6c be 97 3b a5 be 4a af a5 3e d4 b8 90 be
       -0.23083796 -0.32272026 0.32360297 -0.28266013
000070 f4 a3 67 bd 9a 99 a7 be 30 c7 30 be 6d 04 e0 be
       -0.056552842 -0.32734376 -0.17263484 -0.43753377
000080 7d 0c e8 be 89 74 b3 3e d6 a5 f3 bd 80 eb 81 bd
       -0.45322028 0.35049847 -0.11896865 -0.06343746
000090 c4 5a 0d bf 3b 33 ce be 79 96 33 be 0c 1e 45 bd
       -0.5521662 -0.4027346 -0.1753787 -0.048124358
0000a0 36 7e ad be 3a a6 8f 3d 5d 62 70 3e 1d db 03 bf
       -0.33885354 0.07014127 0.23475023 -0.51506215
0000b0 56 32 18 3d 03 68 52 3e 0b 8c 53 3c 66 68 3e be
       0.03715738 0.2054749 0.012911807 -0.18594512
0000c0 e7 5f 41 bd 7f e3 1a be 05 76 bf be 0e 7b 07 bf
       -0.0472106 -0.15125845 -0.3739473 -0.5292214
0000d0 1e fa 6d be 2d f4 41 3c f3 e2 90 be 31 c6 5d 3e
       -0.23239943 0.011838001 -0.2829815 0.21657635
0000e0 ca 2b b4 3e 57 b9 26 3e 4a a6 49 3c 9b 43 9a be
       0.35189658 0.16281639 0.012307713 -0.30129704
0000f0 7e ea 45 be 4b 67 5e be 54 86 4f 3c 9c f0 9a 3e
       -0.19327733 -0.2171909 0.012666304 0.30261695
000100 cb 37 aa be 0e 1f 4d 3b d4 f7 c9 bd f2 59 8e be
       -0.33245692 0.0031299028 -0.098617226 -0.27802998
000110 62 e9 a7 bd 5b e7 06 3e 7f 7f ac bd 8e c0 d4 be
       -0.08198811 0.13174193 -0.084227555 -0.41553158
000120 a1 6b 95 3e 88 52 fb be b1 34 8a 3e d0 99 d9 be
       0.29183677 -0.49086404 0.26993325 -0.42500162
000130 a0 32 27 be a9 98 74 be 31 1f 9d be fb d9 aa 3d
       -0.16327906 -0.2388636 -0.3068786 0.08342358
000140 aa 86 20 be ac ce 06 be df 36 e8 be 06 fe 25 bf
       -0.1567637 -0.13164777 -0.45354363 -0.64840734
000150 a4 4e d1 be ed 2f fe bd 25 b4 7f be 1e a4 a6 be
       -0.4088031 -0.12411485 -0.24971063 -0.32547086
000160 ee 14 08 3e c9 51 d2 3d e4 be a6 3b bb 6e 17 3f
       0.13289234 0.102695055 0.005088674 0.59153336
000170 c0 07 f2 3e 20 0d 0d 3c a1 a0 83 be 95 54 8a 3d
       0.47271538 0.008609086 -0.25708488 0.06754414
000180 67 0b c8 be a4 dd de 3c 0d a0 86 bc 11 d0 53 3e
       -0.390712 0.027205296 -0.01643374 0.2068484
000190 77 b5 06 bf e9 af 9c be 09 20 ab 3e ba cf f3 be
       -0.52620643 -0.3060296 0.33422878 -0.4761942
0001a0 12 0a 80 be bc d1 96 bd d2 dd 18 3e 6c bd f3 be
       -0.25007683 -0.073642224 0.14928368 -0.47605455
0001b0 ae 78 85 bd 74 4e d3 be 03 ee e6 3d 76 9a 3b be
       -0.065171584 -0.41270792 0.11275866 -0.18320641
0001c0 e3 33 01 bf e9 a3 92 bd 36 9e 37 3e ae 04 fa be
       -0.504698 -0.0716017 0.17931446 -0.48831695
0001d0 d5 e3 29 3e 5a 90 84 be 90 ad 75 be 57 0a 14 bf
       0.16590817 -0.25891382 -0.2399199 -0.5782828
0001e0 a3 99 08 be 6e 7d c9 3d cf f8 58 be ef 2d f9 bd
       -0.13339858 0.09838377 -0.21188663 -0.12166964
0001f0 34 c6 14 bf 9a 81 ee 3a 50 eb 3a bd 1e 7d 22 bd
       -0.58114934 0.0018196583 -0.045634568 -0.039670102
000200 ee ff 0d be 18 df 2a bf 3f 98 78 be 60 02 d1 be
       -0.1386716 -0.66746664 -0.24276827 -0.40822124
000210 97 53 8a 3e 50 dc 11 bf c9 a7 63 3d bb 76 0c bf
       0.270169 -0.56976795 0.055579934 -0.5486867
000220 00 40 ba be 73 14 a9 be d1 f2 8e be 75 6c c5 3d
       -0.36376953 -0.33023414 -0.2791963 0.09639827
000230 7b 6a 1a bf 0d 87 2b be c4 89 90 3e ac 53 34 be
       -0.60318726 -0.16750737 0.28230107 -0.17610043
000240 cc a9 5b be 1f 34 94 be 2c 36 f0 3b 8a 09 ec be
       -0.21451491 -0.28946015 0.0073306765 -0.46101028
000250 23 6d ca be d8 cc ea bd 5e d1 3b bf ea 42 0f be
       -0.3953639 -0.11464852 -0.73366344 -0.1399037
000260 b5 e1 35 be 35 6f e2 be bc d9 32 3d 3a b8 01 3c
       -0.17761882 -0.4422547 0.04366468 0.007917458
000270 f1 f5 03 bf d4 65 fc 3e 4d db 83 be d5 eb 40 3d
       -0.5154715 0.4929644 -0.2575325 0.047099907
000280 f6 02 f5 be 1c c5 a0 3e c8 35 b1 3e 85 ab 29 3e
       -0.47853822 0.31400383 0.34611344 0.16569336
000290 db f7 8e be 30 ef 33 bf 26 a4 63 3b be 60 a0 be
       -0.27923474 -0.70286846 0.0034735291 -0.31323808
0002a0 13 49 20 3f ca ca ba be 12 46 ac be 04 db 3a bd
       0.626115 -0.3648284 -0.3364721 -0.045619026
0002b0 8c 24 5d 3e 8e c6 ee 3d 4d 1c 1c be ce f7 07 be
       0.21595973 0.11658965 -0.15245171 -0.13278124
0002c0 39 ac 1b bf 00 96 55 3b ab a7 6d be 63 cb bb 3d
       -0.60809666 0.0032590628 -0.23208492 0.09169652
0002d0 ea 02 6c be 0c c6 73 be 22 cc 8d 3e d3 f3 68 be
       -0.23047987 -0.23806018 0.27694803 -0.22749262
0002e0 6c 48 95 bd 47 d6 33 be 52 69 0a bf 94 72 28 3e
       -0.07289204 -0.17562209 -0.54066956 0.16449958
0002f0 94 6d 86 be 9f 36 9e be 70 c8 10 bf 46 6a 0b 3e
       -0.26255476 -0.30901048 -0.56555843 0.13614759
000300 b4 c4 21 be 06 1f 79 be 49 62 92 be a0 80 30 be
       -0.15797693 -0.24328241 -0.2859061 -0.17236567
000310 a8 10 7d be 5a e7 2c bf c7 f1 23 3d 29 b8 6e be
       -0.24713385 -0.67540514 0.0400255 -0.23312439
000320 d9 0d 18 be 3f 08 86 be cb 42 d8 be bc 7f 84 bb
       -0.14849032 -0.26178166 -0.4223846 -0.0040435474
000330 20 6b 88 be 7d f8 fe be 94 6b 95 be 95 6e 95 be
       -0.2664423 -0.49798957 -0.29183638 -0.2918593
000340 eb 6f 8c be 32 5a 8b be 77 dd a0 be e4 26 99 be
       -0.27429137 -0.2721725 -0.31418964 -0.29912484
000350 15 3d 1c bf 5c a6 81 be 8c 13 c9 3e 2b 85 cd bb
       -0.61030704 -0.25322235 0.39272726 -0.0062719784
000360 4c 50 f5 be eb 65 7f bd 9b 7f af be b0 67 18 bf
       -0.47912824 -0.062353056 -0.34277043 -0.59533215
000370 c0 74 21 be 33 4f dd be fb 0e 3f be 90 fa 14 3d
       -0.15767193 -0.43224487 -0.18658058 0.036371768
000380 39 eb 33 3e b5 24 01 be 89 6a 34 3e 55 90 d3 be
       0.17570199 -0.12611659 0.17618765 -0.41321054
000390 ae a9 5b be e7 db 4e be 21 a5 d8 be 78 99 9f bd
       -0.21451446 -0.20201074 -0.42313483 -0.07792944
0003a0 cc 90 ad be ba a7 03 bf 2a 42 0d 3e 4f 7f 26 3e
       -0.33899534 -0.51427805 0.13794771 0.16259502
0003b0 50 e7 52 bd 4c 1b 9a be e8 21 a4 be bd e8 a5 3e
       -0.051490128 -0.3009895 -0.32057118 0.32404128
0003c0 42 d0 33 bf 28 0d b3 be 34 89 0e bf d8 5b 72 be
       -0.7023965 -0.34970975 -0.55678105 -0.23667848
0003d0 88 9a 4a be 9b ea 0c be cd 11 07 be 3a ea c5 be
       -0.19785511 -0.1376137 -0.13190384 -0.38655263
0003e0 6d 51 47 be f9 b6 28 be ea 26 fc 3d 85 81 8e 3e
       -0.19464655 -0.16476049 0.1231211 0.2783319
0003f0 06 ef cb be 0d d4 b7 be cf cb 4e bf 7e a5 b0 be
       -0.39830798 -0.3590397 -0.8077974 -0.3450126

weight f4 [64, 128]
000000 88 62 47 3d 96 3f 3c bd 9c 7d 83 be c1 f2 8b be
       0.04867795 -0.045959078 -0.2568177 -0.27333644
000010 1d 86 74 3d 5b 5d ab bc 92 26 14 3e aa 4b 08 bc
       0.059698213 -0.020918539 0.14467838 -0.008318821
000020 38 67 3c 3e 7e 0f dc 3e c1 ac e9 3e fa 34 93 bd
       0.1839875 0.4298057 0.45639613 -0.07187839
000030 e7 a0 a3 3e 07 6e 45 be fe ef b2 3d 53 51 ff 3d
       0.31958696 -0.19280253 0.08737181 0.12466683
000040 85 70 41 bd bd 4b 78 3e 0c a6 23 3e ef 32 9e 3e
       -0.047226448 0.24247642 0.1598131 0.30898234
000050 66 06 09 be 35 c7 0f 3e 75 16 46 bd 18 34 81 be
       -0.13381347 0.14040835 -0.04836126 -0.25235057
000060 7e 1f b0 3c 5c 3b 3c be 34 b8 47 be c6 e2 b6 3e
       0.021499392 -0.18382019 -0.19503862 0.3571989
000070 81 89 6d be 86 b7 a8 3b a7 bb 5a 3e e1 1e ab 3c
       -0.23196985 0.005148831 0.21360646 0.020888748
000080 d1 b7 50 be ba 7e 38 be 5e 3a 21 be 09 27 23 3c
       -0.2038262 -0.18017092 -0.15744922 0.009958037
000090 dd 32 84 3e 17 5a b4 be bc 81 37 bd d1 d1 4e 3d
       0.25820056 -0.35224983 -0.04480146 0.050493065
0000a0 89 51 eb bc 40 d3 17 3e 23 3f ef 3d 1e 41 ac 3d
       -0.028725402 0.14826679 0.11681964 0.084108576
0000b0 4d 6b 1d bd 24 93 bd be 07 e2 53 bd 4d db 12 3e
       -0.038432408 -0.37026322 -0.05172923 0.14341469
0000c0 cb 3b 51 be cd 03 64 bd 8e b5 3a 3f 63 ef d5 3d
       -0.20432965 -0.055667687 0.7293328 0.1044605
0000d0 06 cb 8c 3d 30 ad 60 bc 53 77 1d 3e 45 34 f4 bd
       0.06874661 -0.013713166 0.1537755 -0.11924032
0000e0 9d b2 5b 3e df e1 b3 3d ac 16 72 be 5b 5a 12 bd
       0.21454854 0.08783316 -0.23641461 -0.0357307
0000f0 c2 46 41 3e e1 92 31 3e 5e 05 04 bb b0 0a 56 bd
       0.18874648 0.17341186 -0.00201448 -0.052256286
000100 2e a9 e1 be 8a 0a 81 3d af 4a 63 be df 1e be be
       -0.44074386 0.06300838 -0.22196458 -0.37132928
000110 88 f2 88 3e ea 75 0f be fe 4c 02 be 89 94 4c 3d
       0.26747537 -0.14009824 -0.12724683 0.04994634
000120 1d 9a 25 bd 8a 3d 2c be ba ff 16 be 42 be 52 be
       -0.040430177 -0.1682035 -0.1474599 -0.2058039
000130 57 56 d5 bd 51 0e 22 be 13 32 bd bb 42 de ec 3d
       -0.10416859 -0.15825774 -0.0057737916 0.1156583
000140 1e ae 83 3e 79 a1 81 be 1b 07 64 bd 5b e2 fe bd
       0.25718778 -0.25318506 -0.05567084 -0.12445518
000150 c2 c7 d7 bd ca 93 4b bc 9b 5e c2 bd 5a a2 0e bb
       -0.10536148 -0.012425372 -0.09490701 -0.002176425
000160 ed c8 15 be 44 43 02 3d ab fd 1d 3e 02 0d 6d 3e
       -0.14627428 0.03180243 0.15428798 0.23149493
000170 98 53 df bd d7 4e 09 bb 5b 03 17 bd e0 c4 11 3c
       -0.10904616 -0.0020951533 -0.036868434 0.008897036
000180 eb 2b d8 3d cc b5 14 be a0 96 95 bd 19 ad a6 3e
       0.10555252 -0.14522475 -0.0730412 0.32553938
000190 84 4a 93 ba 36 43 b9 3e 5f 10 b6 3d 9f d3 cb 3c
       -0.0011237417 0.3618409 0.08889841 0.024881182
0001a0 07 ba b8 3e 6b 7b 15 3c 33 23 83 bd 3a 1d c0 bd
       0.36079428 0.009123663 -0.06403198 -0.093805745
0001b0 a7 bd 9e 3d 15 9f 4e bd d5 f7 30 3e ca af 64 3e
       0.07751017 -0.05044468 0.1728204 0.22332683
0001c0 40 2d c8 3c b2 47 e9 bc 41 85 2b 3e 12 8d 82 3e
       0.02443564 -0.02847657 0.16750051 0.25498253
0001d0 e8 f0 0d be 33 95 62 bd 46 ff 39 3e 48 fe fe bd
       -0.1386143 -0.05531807 0.18163785 -0.12450844
0001e0 8a f0 e4 3d 76 82 15 be ca 3e 1f 3e 07 2a 45 be
       0.11178692 -0.14600548 0.15551296 -0.19254313
0001f0 2c 38 c6 3d 08 e0 89 3e 7c f6 9e 3d 6f 81 57 3e
       0.09678683 0.26928735 0.07761857 0.21045469
000200 77 71 5b 3d 8c f2 a7 be 68 6c 27 3e bd 70 d8 3e
       0.053575005 -0.32802236 0.16349947 0.42273512
000210 5c f8 71 be a9 0f bb 3e 62 3c 16 3f 4e 12 22 3e
       -0.23629898 0.36535385 0.58685887 0.15827295
000220 20 f9 11 bf c0 ce 9a be 3c 23 91 3d 99 ce f7 3d
       -0.5702076 -0.30235863 0.070867985 0.12099952
000230 ac 53 cf 3e 91 f2 6d 3d 25 27 d7 bd 00 dc 1c be
       0.40493524 0.058092657 -0.10505513 -0.15318298
000240 65 be d9 bd 74 6d b8 bc ec 45 06 be 76 e2 72 be
       -0.10632018 -0.022513129 -0.1311261 -0.237192
000250 83 19 62 3e 74 9b 47 bd 91 48 9b 3e f7 8f 7d be
       0.22080044 -0.048732236 0.303288 -0.2476195
000260 7d f5 ad 3e 04 6d 90 be e8 0c 6b 3d fc b0 fb 3d
       0.33976355 -0.28208172 0.057385355 0.122896165
000270 18 ad e2 3d c3 3b 24 be 28 98 ff be 77 7c 50 3d
       0.11068171 -0.16038422 -0.49920774 0.05089995
000280 12 16 54 3e 4b 23 fb 3e 54 9e d1 3e e0 1a 27 be
       0.20711544 0.49050364 0.40941107 -0.16318846
000290 47 58 c7 bc 00 88 b3 3d 11 c1 5e bd 07 ea 82 bd
       -0.024334086 0.08766174 -0.05438334 -0.063922934
0002a0 84 f5 8a 3e 7c e9 63 be ec cc a0 be 8c 3a 93 bd
       0.2714044 -0.22257036 -0.31406343 -0.07188901
0002b0 b8 3c 4b 3d fc 8b 89 3e 87 c1 38 be 42 af d5 3b
       0.049618453 0.26864612 -0.18042575 0.0065211365
0002c0 f2 27 9e 3e ad f3 49 bd fb 02 68 3e 60 da 87 3d
       0.3088985 -0.049304653 0.22657387 0.066334486
0002d0 29 18 91 3e 9f fc 6c be e8 41 8a 3e 29 aa 97 be
       0.28338745 -0.23143242 0.27003407 -0.2962201
0002e0 bc 5d 3d be f0 75 1d bd 02 7f 27 3b 0f 67 01 bf
       -0.18492788 -0.038442552 0.002555788 -0.5054788
0002f0 8b 85 d6 bc cb fa 9e bd b8 f9 bc be 04 81 4e 3d
       -0.026186725 -0.07762679 -0.3690927 0.050416008
000300 98 15 24 be a9 8f ac bc 34 be e8 bb 08 6c 10 be
       -0.16023862 -0.021064596 -0.007102752 -0.1410371
000310 a4 c1 0e 3b 20 90 d4 bd dd fb d8 3e d5 dc 52 be
       0.00217829 -0.10379052 0.42379656 -0.20592053
000320 fe 7d af 3a 3e 60 26 3e 12 3e 72 3d 93 00 58 be
       0.0013388989 0.16247651 0.059141226 -0.21093969
000330 16 3b 6c 3e 89 60 b5 be f6 22 7d bd 08 90 fc 3d
       0.23069414 -0.35425213 -0.06180092 0.12332159
000340 7a c8 03 3f f2 9f 5b be c5 f3 78 3e 92 b7 13 be
       0.5147778 -0.21447733 0.2431174 -0.14425495
000350 3b 53 6c be 55 65 33 3e 70 20 fb be ef 70 d1 be
       -0.23078625 0.17519124 -0.49048185 -0.40906474
000360 00 8d 5b 3e 77 8b 32 3e 8f ba 7b 3d fe 87 0a 3e
       0.21440506 0.17436014 0.061457213 0.1352844
000370 10 2f 0c be 1b 3a 18 be 5c 74 5c 3d 0c d2 18 3e
       -0.13689828 -0.14865915 0.053821906 0.14923877
000380 b8 f1 ae be c1 7a 90 3d fe 24 99 bd 79 71 12 3e
       -0.34168792 0.070546634 -0.07477759 0.14301099
000390 b9 db 1b 3c 14 b6 ff bd 0f b3 94 be 1f 44 36 be
       0.009512835 -0.124859005 -0.2904286 -0.17799424
0003a0 85 be 3a be 67 03 08 3e 3d 54 9d 3e df 7a 3c 3e
       -0.1823674 0.13282548 0.3072833 0.18406247
0003b0 1d 17 ca be 1c 7c 81 3e 5c 3c 00 3e 29 0f 59 be
       -0.3947076 0.2529 0.12523025 -0.2119719
0003c0 1c 0c 67 3e 97 3f 81 be 1d e1 59 3d 5d c8 87 bd
       0.22563213 -0.25243828 0.0531932 -0.06630013
0003d0 ca eb 6a 3c b6 90 45 bc 01 a7 12 bd 20 7c dc bd
       0.014338443 -0.012058428 -0.0358038 -0.107658625
0003e0 b6 71 27 bd 87 48 08 3e c5 5b 07 3e a4 7e b5 3d
       -0.040879928 0.13308917 0.13218601 0.088620454
0003f0 c0 63 31 be c2 d0 84 be 69 9c cb bd 63 0f 79 be
       -0.17323208 -0.2594052 -0.09941942 -0.24322276

bias f4 [64]
000000 bf 2f a0 3d 3b 10 96 be c7 a5 62 be d3 24 c4 be
       0.07821607 -0.29309258 -0.22133552 -0.38309345
000010 76 9f bf be f6 c2 f4 be 0a 9a cc be 98 6f b6 be
       -0.37426347 -0.47804993 -0.39961272 -0.35632014
000020 56 b7 bd be b4 1f fb be 1e 26 90 be e3 dd 19 3e
       -0.37053937 -0.49047625 -0.2815408 0.1502605
000030 58 0a e3 bd 81 35 b3 bb fa da 45 3b 00 02 79 3e
       -0.11085957 -0.0054690246 0.0030190335 0.24317169
000040 16 a4 e9 3d 54 2e ce bd c6 d2 7f 3c 0e 8f 71 3e
       0.1140825 -0.1006743 0.015614217 0.23589727
000050 54 b1 48 be 0d 47 75 bd f7 9b f3 3d e9 27 c1 bc
       -0.19598895 -0.059882212 0.11894982 -0.023578601
000060 d1 35 d8 3d 73 f2 94 3e 1a 97 33 bd 05 c9 8d be
       0.1055714 0.29091224 -0.043845274 -0.27692428
000070 73 27 b6 3e ea 5c 41 3e 20 6f 73 3e ef ff cb 3d
       0.35576972 0.188831 0.2377286 0.09960925
000080 30 28 12 be 45 b2 2f be fc b8 81 be 5f 4a ae bd
       -0.14273143 -0.17157848 -0.25336444 -0.08510279
000090 8a f5 b1 be a3 2b d2 bd a9 c3 fe bd 7d 44 23 be
       -0.34757644 -0.10262229 -0.12439663 -0.15944095
0000a0 b4 22 e5 bd bf 7b 39 be ad 87 8d be 01 c3 19 be
       -0.1118826 -0.18113612 -0.27642575 -0.15015794
0000b0 47 da 90 bd 6c e1 40 be df b2 a7 be 18 e3 61 be
       -0.07072883 -0.18835992 -0.32753655 -0.22059286
0000c0 a5 a2 a2 be f5 16 9e bd 86 83 38 be 95 cf 3e be
       -0.31764713 -0.077192225 -0.18018922 -0.18633874
0000d0 10 3b 70 be c2 1a 6b be c8 f8 eb bd f5 07 b8 bd
       -0.2346003 -0.22959426 -0.11522061 -0.08985893
0000e0 2f e8 d4 bd 3e 96 ad be fa e1 6d be cc da ab be
       -0.10395848 -0.33903688 -0.23230734 -0.33565366
0000f0 bb d5 c0 be 6e d5 cc be a1 5b cc be 29 54 80 3d
       -0.37663063 -0.40006584 -0.39913657 0.06266052
